…
exp_dir: log/scanobjectnn/scanobjectnn-train-pan-ngpus1-seed1174-20250506-144155-7T4oXRtkNC7Ls8dxRSe7Mu
ckpt_dir: log/scanobjectnn/scanobjectnn-train-pan-ngpus1-seed1174-20250506-144155-7T4oXRtkNC7Ls8dxRSe7Mu/checkpoint
log_path: log/scanobjectnn/scanobjectnn-train-pan-ngpus1-seed1174-20250506-144155-7T4oXRtkNC7Ls8dxRSe7Mu/scanobjectnn-train-pan-ngpus1-seed1174-20250506-144155-7T4oXRtkNC7Ls8dxRSe7Mu.log
cfg_path: log/scanobjectnn/scanobjectnn-train-pan-ngpus1-seed1174-20250506-144155-7T4oXRtkNC7Ls8dxRSe7Mu/cfg.yaml
[05/06 14:41:56] ScanObjectNNHardest INFO: BaseCls(
  (encoder): PointAnchorEncoder(
    (embedding): Sequential(
      (0): Conv1d(4, 64, kernel_size=(1,), stride=(1,))
    )
    (encoder): Sequential(
      (0): PointConv(
        (conv): Sequential(
          (0): SetConv(
            (norm): PointPreNorm()
            (conv): Sequential(
              (0): Conv2d(64, 128, kernel_size=(1, 1), stride=(1, 1))
              (1): BatchNorm2d(128, eps=1e-05, momentum=0.1, affine=True, track_running_stats=True)
            )
            (conv1): Sequential(
              (0): Conv2d(128, 128, kernel_size=(1, 1), stride=(1, 1))
              (1): BatchNorm2d(128, eps=1e-05, momentum=0.1, affine=True, track_running_stats=True)
              (2): maxpool(
                (pool): MaxPool2d(kernel_size=(1, 24), stride=(1, 24), padding=0, dilation=1, ceil_mode=False)
              )
            )
            (act): ReLU(inplace=True)
            (maxpool): maxpool(
              (pool): MaxPool2d(kernel_size=(1, 24), stride=(1, 24), padding=0, dilation=1, ceil_mode=False)
            )
          )
          (1): Conv1d(128, 128, kernel_size=(1,), stride=(1,))
          (2): BatchNorm1d(128, eps=1e-05, momentum=0.1, affine=True, track_running_stats=True)
          (3): ReLU(inplace=True)
          (4): Conv1d(128, 128, kernel_size=(1,), stride=(1,))
          (5): BatchNorm1d(128, eps=1e-05, momentum=0.1, affine=True, track_running_stats=True)
        )
        (skip_conv): Sequential(
          (0): Conv1d(64, 128, kernel_size=(1,), stride=(1,))
          (1): BatchNorm1d(128, eps=1e-05, momentum=0.1, affine=True, track_running_stats=True)
        )
        (act): ReLU(inplace=True)
      )
      (1): PointConv(
        (conv): Sequential(
          (0): SetConv(
            (norm): PointPreNorm()
            (conv): Sequential(
              (0): Conv2d(128, 256, kernel_size=(1, 1), stride=(1, 1))
              (1): BatchNorm2d(256, eps=1e-05, momentum=0.1, affine=True, track_running_stats=True)
            )
            (conv1): Sequential(
              (0): Conv2d(256, 256, kernel_size=(1, 1), stride=(1, 1))
              (1): BatchNorm2d(256, eps=1e-05, momentum=0.1, affine=True, track_running_stats=True)
              (2): maxpool(
                (pool): MaxPool2d(kernel_size=(1, 24), stride=(1, 24), padding=0, dilation=1, ceil_mode=False)
              )
            )
            (act): ReLU(inplace=True)
            (maxpool): maxpool(
              (pool): MaxPool2d(kernel_size=(1, 24), stride=(1, 24), padding=0, dilation=1, ceil_mode=False)
            )
          )
          (1): Conv1d(256, 256, kernel_size=(1,), stride=(1,))
          (2): BatchNorm1d(256, eps=1e-05, momentum=0.1, affine=True, track_running_stats=True)
          (3): ReLU(inplace=True)
          (4): Conv1d(256, 256, kernel_size=(1,), stride=(1,))
          (5): BatchNorm1d(256, eps=1e-05, momentum=0.1, affine=True, track_running_stats=True)
        )
        (skip_conv): Sequential(
          (0): Conv1d(128, 256, kernel_size=(1,), stride=(1,))
          (1): BatchNorm1d(256, eps=1e-05, momentum=0.1, affine=True, track_running_stats=True)
        )
        (act): ReLU(inplace=True)
      )
      (2): PointConv(
        (conv): Sequential(
          (0): SetConv(
            (norm): PointPreNorm()
            (conv): Sequential(
              (0): Conv2d(256, 512, kernel_size=(1, 1), stride=(1, 1))
              (1): BatchNorm2d(512, eps=1e-05, momentum=0.1, affine=True, track_running_stats=True)
            )
            (conv1): Sequential(
              (0): Conv2d(512, 512, kernel_size=(1, 1), stride=(1, 1))
              (1): BatchNorm2d(512, eps=1e-05, momentum=0.1, affine=True, track_running_stats=True)
              (2): maxpool(
                (pool): MaxPool2d(kernel_size=(1, 24), stride=(1, 24), padding=0, dilation=1, ceil_mode=False)
              )
            )
            (act): ReLU(inplace=True)
            (maxpool): maxpool(
              (pool): MaxPool2d(kernel_size=(1, 24), stride=(1, 24), padding=0, dilation=1, ceil_mode=False)
            )
          )
          (1): Conv1d(512, 512, kernel_size=(1,), stride=(1,))
          (2): BatchNorm1d(512, eps=1e-05, momentum=0.1, affine=True, track_running_stats=True)
          (3): ReLU(inplace=True)
          (4): Conv1d(512, 512, kernel_size=(1,), stride=(1,))
          (5): BatchNorm1d(512, eps=1e-05, momentum=0.1, affine=True, track_running_stats=True)
        )
        (skip_conv): Sequential(
          (0): Conv1d(256, 512, kernel_size=(1,), stride=(1,))
          (1): BatchNorm1d(512, eps=1e-05, momentum=0.1, affine=True, track_running_stats=True)
        )
        (act): ReLU(inplace=True)
      )
      (3): PointConv(
        (conv): Sequential(
          (0): SetConv(
            (norm): PointPreNorm()
            (conv): Sequential(
              (0): Conv2d(512, 1024, kernel_size=(1, 1), stride=(1, 1))
              (1): BatchNorm2d(1024, eps=1e-05, momentum=0.1, affine=True, track_running_stats=True)
            )
            (conv1): Sequential(
              (0): Conv2d(1024, 1024, kernel_size=(1, 1), stride=(1, 1))
              (1): BatchNorm2d(1024, eps=1e-05, momentum=0.1, affine=True, track_running_stats=True)
              (2): maxpool(
                (pool): MaxPool2d(kernel_size=(1, 24), stride=(1, 24), padding=0, dilation=1, ceil_mode=False)
              )
            )
            (act): ReLU(inplace=True)
            (maxpool): maxpool(
              (pool): MaxPool2d(kernel_size=(1, 24), stride=(1, 24), padding=0, dilation=1, ceil_mode=False)
            )
          )
          (1): Conv1d(1024, 1024, kernel_size=(1,), stride=(1,))
          (2): BatchNorm1d(1024, eps=1e-05, momentum=0.1, affine=True, track_running_stats=True)
          (3): ReLU(inplace=True)
          (4): Conv1d(1024, 1024, kernel_size=(1,), stride=(1,))
          (5): BatchNorm1d(1024, eps=1e-05, momentum=0.1, affine=True, track_running_stats=True)
        )
        (skip_conv): Sequential(
          (0): Conv1d(512, 1024, kernel_size=(1,), stride=(1,))
          (1): BatchNorm1d(1024, eps=1e-05, momentum=0.1, affine=True, track_running_stats=True)
        )
        (act): ReLU(inplace=True)
      )
    )
    (pool): AdaptiveMaxPool1d(output_size=1)
  )
  (prediction): ClsHead(
    (head): Sequential(
      (0): Sequential(
        (0): Linear(in_features=1024, out_features=512, bias=False)
        (1): BatchNorm1d(512, eps=1e-05, momentum=0.1, affine=True, track_running_stats=True)
        (2): ReLU(inplace=True)
      )
      (1): Dropout(p=0.5, inplace=False)
      (2): Sequential(
        (0): Linear(in_features=512, out_features=256, bias=False)
        (1): BatchNorm1d(256, eps=1e-05, momentum=0.1, affine=True, track_running_stats=True)
        (2): ReLU(inplace=True)
      )
      (3): Dropout(p=0.5, inplace=False)
      (4): Sequential(
        (0): Linear(in_features=256, out_features=15, bias=True)
      )
    )
  )
  (criterion): SmoothCrossEntropy()
)
[05/06 14:41:56] ScanObjectNNHardest INFO: Number of params: 6.2624 M
[05/06 14:41:56] ScanObjectNNHardest INFO: Param groups = {
  "decay": {
    "weight_decay": 0.05,
    "params": [
      "encoder.embedding.0.weight",
      "encoder.encoder.0.conv.0.norm.alpha",
      "encoder.encoder.0.conv.0.norm.beta",
…
